…
# input_shape is going to be the pooled feature maps from the previous convolution layer
model.add(MaxPooling2D(pool_size=(2,2)))
# Flattening the layers i.e. input layer
model.add(Flatten())
# Adding a fully connected layer, i.e. Hidden Layer
model.add(Dense(units=512 , activation='relu'))
# softmax for categorical analysis, Output Layer
model.add(Dense(units=6, activation='softmax')) 
model.summary()#summary of our model
Model: "sequential"
_________________________________________________________________
Layer (type)                 Output Shape              Param #   
=================================================================
conv2d (Conv2D)              (None, 62, 62, 32)        320       
_________________________________________________________________
max_pooling2d (MaxPooling2D) (None, 31, 31, 32)        0         
_________________________________________________________________
conv2d_1 (Conv2D)            (None, 29, 29, 32)        9248      
_________________________________________________________________
max_pooling2d_1 (MaxPooling2 (None, 14, 14, 32)        0         
_________________________________________________________________
flatten (Flatten)            (None, 6272)              0         
_________________________________________________________________
dense (Dense)                (None, 512)               3211776   
_________________________________________________________________
dense_1 (Dense)              (None, 6)                 3078      
=================================================================
Total params: 3,224,422
Trainable params: 3,224,422
Non-trainable params: 0
_________________________________________________________________
Model Compilation
# Compiling the CNN
# categorical_crossentropy for more than 2
model.compile(optimizer='adam', loss='categorical_crossentropy', metrics=['accuracy']) 
Model fitting
…
